crates/model2vec-rs/tests/fixtures/test-model-float32/model.safetensors (safetensors, 236312 bytes, 1 tensors)

embeddings f4 [29528, 2]
000000 d4 d3 ed be 02 d2 3d 3d e1 2b 52 3f 88 c4 2b c0
       -0.46450675 0.046342857 0.82098204 -2.6838703
000010 5f 0b 83 3e 15 c4 c4 3f 32 be 13 bf 54 f7 d6 3f
       0.25594613 1.537234 -0.5771209 1.6794229
000020 62 4b 17 bf 32 f4 f8 3f 1c fb d5 be 53 87 9a bf
       -0.590994 1.9449522 -0.41793144 -1.2072548
000030 37 58 2c bf 3d 19 23 bf 82 8c 26 c0 c3 fd bd c0
       -0.67322105 -0.63710386 -2.602326 -5.937227
000040 6d d7 87 be 19 d0 2a 40 05 ee 2c c0 11 22 2c 3f
       -0.26531544 2.6689513 -2.7020276 0.6723948
000050 b9 44 38 3f e2 cc 08 40 4e 48 24 3f 28 92 c1 bf
       0.7197986 2.137505 0.6417283 -1.5122728
000060 8c d7 9b be 88 72 f0 3e 19 15 9d be fc 80 48 bc
       -0.30437887 0.4696238 -0.3068016 -0.0122377835
000070 0b 23 19 c0 90 f8 e7 bf c9 45 40 bf 15 cf 0c c0
       -2.3927639 -1.812273 -0.75106484 -2.2001393
000080 22 ee e5 bd b5 e1 90 bd ec 8e ff bd aa 80 55 3e
       -0.11227061 -0.070743 -0.12478432 0.20849863
000090 07 99 80 bb 70 d7 1b 3c 90 b0 83 bf 89 24 4d 3c
       -0.0039244923 0.0095118135 -1.0288258 0.012520918
0000a0 d8 c2 27 bf 32 b4 26 c0 68 8f 36 3f 32 0d 16 40
       -0.6553168 -2.6047482 0.7131257 2.3445554
0000b0 3e b9 ae bf 38 2d 3a 40 43 51 9c be 2c 13 45 bf
       -1.3650281 2.90901 -0.30530748 -0.7698238
0000c0 55 21 12 3f 8b c4 82 40 c7 14 84 bf 78 cd 19 40
       0.5708211 4.086492 -1.0318841 2.4031658
0000d0 bb 0c 36 40 b4 05 a0 be d9 8e cc 3f 7f 15 b0 be
       2.844527 -0.3125435 1.5981094 -0.343914
0000e0 3c ed 3b 40 f3 ee 2a bf cb 20 13 40 60 a7 43 c0
       2.9363546 -0.6677086 2.2988765 -3.0570908
0000f0 94 d7 88 be 07 d3 c6 bf d4 2f 6d c0 e5 14 54 40
       -0.26726973 -1.553315 -3.7060442 3.3137753
000100 13 16 0b bf 99 a0 fc bf 40 a8 19 c0 2b e8 9c bf
       -0.5433056 -1.973651 -2.4008942 -1.2258352
000110 c5 59 bc bd 8e a0 9b 40 da 24 63 bf 0a 6f 5e bf
       -0.0919681 4.863349 -0.88728106 -0.8688818
000120 f8 ba 96 c0 be 35 06 c0 57 93 7d 3f 05 b8 69 3f
       -4.7103233 -2.0970302 0.9905295 0.91296417
000130 1e de b1 c0 b5 82 d3 c0 98 f4 3c c0 82 02 19 c0
       -5.558364 -6.6097054 -2.9524288 -2.390778
000140 75 35 12 c0 a6 5d fe c0 0f 7f 3e be 71 8d 5a bf
       -2.2845128 -7.9489317 -0.18603157 -0.8537207
000150 79 19 91 bf 88 58 86 bf 7b f3 25 bc c5 41 41 bd
       -1.1335899 -1.0495768 -0.010128851 -0.047181863
000160 d3 37 1b c0 b8 6a 17 3f 1b 50 06 41 4f 37 99 40
       -2.4252822 0.59147215 8.394557 4.7880015
000170 14 46 f6 3f 91 1d 0c c0 53 5d 51 c0 21 cc d7 3f
       1.9240136 -2.1893046 -3.271321 1.685917
000180 bf ad 00 40 05 5b 32 bd 73 0e 4d 40 fe 87 ad be
       2.0106046 -0.043543834 3.204007 -0.33892816
000190 06 b6 a0 3f 13 ab ab bf bf 40 15 bf 94 b3 8d bf
       1.2555549 -1.3411583 -0.5830192 -1.1070428
0001a0 60 a8 30 40 90 d0 45 40 06 24 88 bf cd 7c 4e c0
       2.7602768 3.0908546 -1.0635993 -3.2263672
0001b0 23 2a e8 3e d6 50 14 c0 d0 c6 d1 3f fb 93 52 be
       0.45344648 -2.3174338 1.6388798 -0.20564263
0001c0 11 9b 5b 40 db cd 01 c0 d0 3b 5d 3f 9c 87 07 40
       3.4313395 -2.0281894 0.8641939 2.117652
0001d0 df 3d 5e 40 dd f6 17 41 5c 46 9c be 21 38 63 40
       3.4725263 9.497769 -0.3052243 3.5503008
0001e0 e2 65 f6 3f a3 1a 90 40 9d 17 aa bd 6e cf fb 3e
       1.9249842 4.5032516 -0.08305285 0.49181694
0001f0 61 bc ce bf 51 3f 2c c0 74 e6 17 40 f0 c5 83 bf
       -1.6151239 -2.6913645 2.3734407 -1.0294781
000200 7c ca 66 3f ab bf 54 40 f0 a3 fc 3f 81 20 f5 3f
       0.90152717 3.3241985 1.973753 1.9150544
000210 71 8c 37 bb 91 0d 99 c0 0b f3 d6 be 33 a2 d6 c0
       -0.0028007294 -4.782906 -0.41982302 -6.7072997
000220 b4 97 b1 40 44 7b 46 c1 84 0b 0f 40 f4 56 fd bf
       5.5497684 -12.405094 2.2350779 -1.9792161
000230 a9 90 2b 40 c3 be 14 bf 6e be a5 40 51 97 c5 bf
       2.6807044 -0.5810358 5.179496 -1.5436803
000240 68 af 40 c0 1b 46 99 c0 86 d8 c1 3f 53 ce 21 c0
       -3.010706 -4.789808 1.5144203 -2.528218
000250 79 9c 3e c0 c2 a5 4c 40 4e 7d 3d be b1 53 a2 40
       -2.9783003 3.197617 -0.18504831 5.072716
000260 4c 7a 8f 40 ee 6e c7 3f 41 57 4f 40 ea 2b c0 c0
       4.483679 1.5580728 3.2397006 -6.0053606
000270 d9 e8 e2 bf 7d 96 2d c0 24 3a 6a 3f 93 b6 c0 40
       -1.772731 -2.71231 0.91494966 6.022287
000280 2c 27 ec bf e2 65 57 c0 c9 de 10 c1 fa 75 13 c0
       -1.8449454 -3.3655934 -9.054391 -2.3040757
000290 c4 ea 71 c0 57 2f d3 c0 ed 4f eb bf 7f 99 17 be
       -3.779954 -6.599529 -1.8383766 -0.14804648
0002a0 67 53 04 c1 26 10 cd c0 5a 9d 44 40 88 91 a5 40
       -8.270362 -6.4082212 3.072104 5.174015
0002b0 c8 00 76 c0 bb 44 e3 c0 71 5a 12 c0 7c 6f d2 bf
       -3.8437977 -7.10214 -2.28677 -1.6440272
0002c0 9c 15 cf 3f 5e 60 ee bf fe c8 5d 3f bf 16 02 c1
       1.617847 -1.8623159 0.86634815 -8.130553
0002d0 8b b1 64 c0 a0 d2 9f c0 15 0d c3 40 b5 e0 4d c0
       -3.5733364 -4.994461 6.095347 -3.21684
0002e0 a8 44 97 bf 89 d2 9a c0 a4 e7 bb c0 8e 4c a1 c0
       -1.1817827 -4.8382 -5.8720264 -5.040595
0002f0 40 f7 86 40 2f f9 cc 3c 9a e6 09 3d c2 52 b8 c0
       4.217682 0.025021164 0.033667184 -5.7601023
000300 ce 66 50 c0 18 b4 95 40 d2 1d 77 3f 40 f6 e5 40
       -3.2562747 4.678234 0.9652988 7.18631
000310 bc 06 6e bf 20 00 90 40 22 6d 35 40 26 06 91 c0
       -0.92979026 4.5000153 2.834786 -4.5320005
000320 53 be b1 c0 6b a4 8f c0 65 0b a3 40 7d 77 d6 bd
       -5.554483 -4.4888206 5.095141 -0.10472009
000330 85 a6 61 40 0d ae 26 c1 17 f2 16 c0 78 35 1d c1
       3.5257885 -10.417493 -2.358526 -9.825554
000340 12 51 9a 3e e4 47 20 c1 73 9c 3a c1 9f 55 d3 bf
       0.30139977 -10.017551 -11.663196 -1.6510504
000350 67 f9 06 40 a5 54 58 c0 e3 b3 79 c0 45 ce 3e c1
       2.1089723 -3.3801663 -3.9016044 -11.925359
000360 72 21 8c bf 7b 2c 57 c0 d5 4a 01 41 b6 e3 02 c1
       -1.0947707 -3.3620899 8.08077 -8.1805935
000370 ec 71 2a 40 02 69 89 c0 13 34 13 40 38 c1 f6 c0
       2.6632032 -4.2940683 2.3000534 -7.7110863
000380 a3 58 ab be 45 08 c3 c0 3a 5c b0 be 5a 41 ec c0
       -0.33466062 -6.0947595 -0.34445363 -7.3829775
000390 8a 2c 1a bf b2 8a d0 c0 f2 76 11 40 c7 27 4a c0
       -0.6022421 -6.5169306 2.2728848 -3.1586778
0003a0 2d ac 4f 3f 70 3f b6 c0 90 75 52 bf ba 11 e0 c0
       0.81122094 -5.695244 -0.82210636 -7.002164
0003b0 b5 e3 51 3f f8 f4 be c0 a7 61 09 c0 31 8c b4 c0
       0.8198808 -5.9674034 -2.1465852 -5.642113
0003c0 1c e1 1f c0 b0 dd 0c c1 16 1d 7b c0 84 ce dd c0
       -2.4981146 -8.804123 -3.9236503 -6.9314594
0003d0 b6 2d ba 40 5d 2c cb c0 28 13 21 40 8f f4 11 c1
       5.81808 -6.3491654 2.5167942 -9.122207
0003e0 b2 6b 3d c0 58 47 10 c1 75 14 fb bf 3a 4b c9 c0
       -2.9596982 -9.017418 -1.9615618 -6.290433
0003f0 d5 38 93 3f fb f5 b6 c0 45 7e 19 c0 89 3b f1 c0
       1.1501719 -5.717527 -2.3983319 -7.5385175
